[xnornet]
height=227
width=227
channels=3

[convolutional]
filters=96
size=11
stride=4
pad=0

[maxpool]
size=3
stride=2
pad=0

[convolutional]
filters=256
size=5
stride=1
pad=1

[maxpool]
size=3
stride=2
pad=0

[convolutional]
filters=384
size=3
stride=1
pad=1

[convolutional]
filters=384
size=3
stride=1
pad=1

[convolutional]
filters=256
size=3
stride=1
pad=1

[maxpool]
size=3
stride=2
pad=0

[convolutional]
filters=4096
size=6
stride=1
pad=0

[convolutional]
filters=4096
size=1
stride=1
pad=0

[convolutional]
filters=1000
size=1
stride=1
pad=0

[softmax]
groups=1